…
tion":{"iopub.status.busy":"2024-09-11T08:15:11.556839Z","iopub.execute_input":"2024-09-11T08:15:11.557436Z","iopub.status.idle":"2024-09-11T08:15:11.570142Z","shell.execute_reply.started":"2024-09-11T08:15:11.557397Z","shell.execute_reply":"2024-09-11T08:15:11.568821Z"},"trusted":true},"execution_count":77,"outputs":[{"name":"stdout","text":"Model: \"sequential_5\"\n_________________________________________________________________\nLayer (type)                 Output Shape              Param #   \n=================================================================\nsequential_3 (Sequential)    (None, 256, 256, 3)       0         \n_________________________________________________________________\nsequential_4 (Sequential)    (None, 256, 256, 3)       0         \n_________________________________________________________________\nconv2d_6 (Conv2D)            (None, 254, 254, 32)      896       \n_________________________________________________________________\nmax_pooling2d_6 (MaxPooling2 (None, 127, 127, 32)      0         \n_________________________________________________________________\nconv2d_7 (Conv2D)            (None, 125, 125, 64)      18496     \n_________________________________________________________________\nmax_pooling2d_7 (MaxPooling2 (None, 62, 62, 64)        0         \n_________________________________________________________________\nconv2d_8 (Conv2D)            (None, 60, 60, 64)        36928     \n_________________________________________________________________\nmax_pooling2d_8 (MaxPooling2 (None, 30, 30, 64)        0         \n_________________________________________________________________\nconv2d_9 (Conv2D)            (None, 28, 28, 64)        36928     \n_________________________________________________________________\nmax_pooling2d_9 (MaxPooling2 (None, 14, 14, 64)        0         \n_________________________________________________________________\nconv2d_10 (Conv2D)           (None, 12, 12, 64)        36928     \n_________________________________________________________________\nmax_pooling2d_10 (MaxPooling (None, 6, 6, 64)          0         \n_________________________________________________________________\nconv2d_11 (Conv2D)           (None, 4, 4, 64)          36928     \n_________________________________________________________________\nmax_pooling2d_11 (MaxPooling (None, 2, 2, 64)          0         \n_________________________________________________________________\nflatten_1 (Flatten)          (None, 256)               0         \n_________________________________________________________________\ndense_2 (Dense)              (None, 64)                16448     \n_________________________________________________________________\ndense_3 (Dense)              (None, 3)                 195       \n=================================================================\nTotal params: 183,747\nTrainable params: 183,747\nNon-trainable params: 0\n_________________________________________________________________\n","output_type":"stream"}]},{"cell_type":"markdown","source":"**Model Compilation with Optimizer and Loss Function**","metadata":{}},{"cell_type":"code","source":"","metadata":{"exec
…
