…
.execute_reply":"2024-09-11T09:56:18.177147Z","shell.execute_reply.started":"2024-09-11T09:18:38.358526Z"},"papermill":{"duration":0.071707,"end_time":"2024-09-11T09:56:18.177296","exception":false,"start_time":"2024-09-11T09:56:18.105589","status":"completed"},"tags":[]},"outputs":[{"name":"stdout","output_type":"stream","text":["Model: \"sequential_2\"\n","_________________________________________________________________\n","Layer (type)                 Output Shape              Param #   \n","=================================================================\n","sequential (Sequential)      (32, 256, 256, 3)         0         \n","_________________________________________________________________\n","sequential_1 (Sequential)    (32, 256, 256, 3)         0         \n","_________________________________________________________________\n","conv2d (Conv2D)              (32, 254, 254, 32)        896       \n","_________________________________________________________________\n","max_pooling2d (MaxPooling2D) (32, 127, 127, 32)        0         \n","_________________________________________________________________\n","conv2d_1 (Conv2D)            (32, 125, 125, 64)        18496     \n","_________________________________________________________________\n","max_pooling2d_1 (MaxPooling2 (32, 62, 62, 64)          0         \n","_________________________________________________________________\n","conv2d_2 (Conv2D)            (32, 60, 60, 64)          36928     \n","_________________________________________________________________\n","max_pooling2d_2 (MaxPooling2 (32, 30, 30, 64)          0         \n","_________________________________________________________________\n","conv2d_3 (Conv2D)            (32, 28, 28, 64)          36928     \n","_________________________________________________________________\n","max_pooling2d_3 (MaxPooling2 (32, 14, 14, 64)          0         \n","_________________________________________________________________\n","conv2d_4 (Conv2D)            (32, 12, 12, 64)          36928     \n","_________________________________________________________________\n","max_pooling2d_4 (MaxPooling2 (32, 6, 6, 64)            0         \n","_________________________________________________________________\n","conv2d_5 (Conv2D)            (32, 4, 4, 64)            36928     \n","_________________________________________________________________\n","max_pooling2d_5 (MaxPooling2 (32, 2, 2, 64)            0         \n","_________________________________________________________________\n","flatten (Flatten)            (32, 256)                 0         \n","_________________________________________________________________\n","dense (Dense)                (32, 64)                  16448     \n","_________________________________________________________________\n","dense_1 (Dense)              (32, 3)                   195       \n","=================================================================\n","Total params: 183,747\n","Trainable params: 183,747\n","Non-trainable params: 0\n","_________________________________________________________________\n"]}],"source":["model.summary()"]},{"cell_type":"markdown","id":"9547e2f9","metadata":{"papermill":{"duration":0.055893,"end_time":"2024-09-11T09:56:18.288214","except
…
.execute_reply":"2024-09-11T10:02:38.110584Z","shell.execute_reply.started":"2024-09-11T09:35:05.791209Z"},"papermill":{"duration":1.969862,"end_time":"2024-09-11T10:02:38.110776","exception":false,"start_time":"2024-09-11T10:02:36.140914","status":"completed"},"tags":[]},"outputs":[{"name":"stdout","output_type":"stream","text":["Model: \"sequential_3\"\n","_________________________________________________________________\n","Layer (type)                 Output Shape              Param #   \n","=================================================================\n","resnet50 (Functional)        (None, 8, 8, 2048)        23587712  \n","_________________________________________________________________\n","global_average_pooling2d (Gl (None, 2048)              0         \n","_________________________________________________________________\n","dense_2 (Dense)              (None, 512)               1049088   \n","_________________________________________________________________\n","batch_normalization (BatchNo (None, 512)               2048      \n","_________________________________________________________________\n","dropout (Dropout)            (None, 512)               0         \n","_________________________________________________________________\n","dense_3 (Dense)              (None, 128)               65664     \n","_________________________________________________________________\n","dropout_1 (Dropout)          (None, 128)               0         \n","_________________________________________________________________\n","dense_4 (Dense)              (None, 2)                 258       \n","=================================================================\n","Total params: 24,704,770\n","Trainable params: 1,116,034\n","Non-trainable params: 23,588,736\n","_________________________________________________________________\n"]}],"source":["from tensorflow.keras import models, layers\n","from keras.layers import Convolution2D, MaxPooling2D, ZeroPadding2D, GlobalAveragePooling
…
